source/_static/code/zh-hant/android/MnistClassifier/app/src/main/assets/mnist_savedmodel.tflite (tflite, 319420 bytes, 4 tensors)

StatefulPartitionedCall/sequential/dense/MatMul/ReadVariableOp/transpose f4 [100, 784]
0.040050045 -0.033830445 -0.0006885156 -0.024265219 -0.027671602 0.081643865 0.04784581 0.04563208
0.03081388 -0.01340618 0.037880406 0.052146867 -0.06929196 0.083069734 0.056727204 0.065309525
0.005120404 0.0095849335 -0.020199168 0.032390594 -0.036614235 -0.07208242 0.078867465 -0.041519415
-0.065373644 -0.029400941 -0.021916073 0.0092371255 0.06991629 -0.08068363 0.06767142 0.052198946
0.061393335 0.06764679 -0.045507938 0.07193152 -0.06062294 -0.03939274 -0.04386202 -0.040843934
-0.09392107 -0.053986985 0.039704587 0.10886484 0.057103723 -0.06335846 0.0148181645 -0.014696935
-0.11797567 -0.074129224 -0.023933342 0.038259033 0.036001578 0.029277824 0.02701208 0.0054473653
0.017473169 0.054931954 -0.01830262 0.047528446 0.0028575624 0.02459024 -0.05042882 -0.05760609
-0.07361975 -0.009964761 -0.0077220094 -0.031354804 -0.08575079 0.0032909275 0.049308687 0.01981934
0.0033430096 0.020729331 -0.07292637 -0.012921539 0.0139731895 -0.070402436 -0.07736338 -0.09736526
0.0161534 0.010051 0.037187785 0.0061520264 0.04189069 0.07221444 -0.022368241 -0.054823145
-0.09011314 -0.01801467 -0.075114 -0.089341834 -0.07495384 -0.034965493 -0.0063100182 -0.008183914
0.027727 0.0710094 0.027623998 0.04200302 -0.07635384 -0.03600363 -0.012095064 -0.17194274
-0.13847838 -0.069581985 -0.09903561 -0.14483348 0.009374052 0.063933186 -0.05258737 -0.07315243
-0.05150208 0.010961726 -0.070668854 -0.07413693 -0.087574236 0.017446717 0.055579763 -0.061234653
-0.039764725 -0.0298261 0.052452844 -0.02238541 0.02350324 0.02497855 -0.025183884 -0.031619046
-0.08091338 0.0072807465 -0.024972448 -0.16196448 -0.06362138 -0.14238763 -0.15765686 -0.0677499
0.0004288718 -0.027674107 0.05460617 -0.056243256 -0.037682768 -0.06644139 0.01069569 -0.05237596
-0.07339126 0.037822884 -0.020390883 -0.068757415 -0.0034712795 0.07743825 0.046446864 0.05229461
0.06202735 -0.046495263 -0.025997588 0.029506028 -0.0010038484 -0.06394955 -0.11132175 -0.037510335
-0.19943255 -0.10257203 -0.044131253 -0.020150632 -0.110727094 -0.03858575 0.040826295 -0.0015006658
-0.029292002 0.053607658 0.063135296 0.0040563964 -0.0517573 -0.024221424 -0.03226056 -0.07680568
0.031885393 0.030449608 -0.032500304 -0.044619437 0.065544575 -0.08290013 0.01890255 -0.012469342
-0.015833456 -0.093106695 -0.05207501 -0.15189466 -0.10599545 -0.120207235 -0.035580117 -0.109430514
0.052662443 -0.09191034 0.058024123 -0.042318415 -0.049576852 0.05669939 0.038233627 -0.027419796
0.0014612873 0.012385845 0.053490203 0.010615409 -0.012892569 -0.05175739 -0.024883576 -0.071504064
-0.08545419 0.03167297 -0.04765354 -0.022754733 -0.07218103 0.02480007 -0.08375314 0.016436908
0.03882851 -0.07454787 0.012122446 -0.0050920215 0.1139198 -0.00796027 0.05414972 -0.072531275
-0.04804265 0.034939032 -2.421096e-05 -0.08189831 -0.11611984 -0.07379696 -0.056937803 0.050534483
0.079201624 0.052191388 0.03701568 -0.05829294 -0.054235976 -0.08526427 -0.0822193 -0.006550689
-0.025532892 0.0867599 0.11487482 -0.009089966 -0.011887044 0.016567197 0.16829526 0.093616076
0.068951555 0.114398025 0.008053112 0.08883469 -0.013466895 0.016493578 -0.044456635 -0.086744115
00000000: 840b 243d cb91 0abd 807d 34ba dac7 c6bc
00000010: 8eaf e2bc e634 a73d f8f9 433d b4e8 3a3d
00000020: 646d fc3c 98a5 5bbc 7c28 1b3d f497 553d
00000030: f1e8 8dbd 7720 aa3d c95a 683d 00c1 853d
00000040: 10c9 a73b 200a 1d3c ba78 a5bc 00ac 043d
00000050: cff8 15bd f39f 93bd 4485 a13d 4310 2abd
00000060: 9ee2 85bd 3eda f0bc 5689 b3bc 5057 173c
00000070: 4630 8f3d 763d a5bd 5097 8a3d 90ce 553d
00000080: 9477 7b3d 668a 8a3d 8866 3abd d550 933d
00000090: c34f 78bd 485a 21bd a9a8 33bd f84b 27bd
000000a0: b159 c0bd 7521 5dbd 47a1 223d 87f4 de3d
000000b0: 98e5 693d 15c2 81bd e3c7 723c 6acb 70bc
000000c0: 3a9d f1bd 10d1 97bd db0f c4bc 81b5 1c3d
000000d0: 6476 133d 0cd8 ef3c 7048 dd3c d07f b23b
000000e0: e423 8f3c 5400 613d 60ef 95bc 30ad 423d
000000f0: f145 3b3b 7971 c93c 738e 4ebd 5df4 6bbd
00000100: f4c5 96bd 3d43 23bc e908 fdbb e56d 00bd
00000110: 1c9e afbd 9aac 573b e8f7 493d 2b5c a23c
00000120: 6516 5b3b 8fd0 a93c 6c5a 95bd ddb4 53bc
00000130: ceef 643c 272f 90bd b170 9ebd 7067 c7bd
00000140: 2354 843c f3ac 243c 3852 183d f096 c93b
00000150: 9295 2b3d 2ae5 933d 9a3d b7bc 3c8e 60bd
00000160: 3d8d b8bd 8093 93bc 5ed5 99bd daf8 b6bd
00000170: 6681 99bd fa37 0fbd 45c4 cebb d315 06bc
00000180: bc23 e33c 606d 913d b94b e23c 5c0b 2c3d
00000190: 675f 9cbd 8b78 13bd 602a 46bc c211 30be
000001a0: 47cd 0dbe 0081 8ebd 2fd3 cabd 3a4f 14be
000001b0: a095 193c 67ef 823d db65 57bd f1d0 95bd
000001c0: d8f3 52bd d098 333c d5ba 90bd 1ad5 97bd
000001d0: 1f5a b3bd 6bec 8e3c 9ba7 633d 30d1 7abd
000001e0: 56e0 22bd de55 f4bc cbd8 563d 9b61 b7bc
000001f0: de89 c03c d19f cc3c 6f4e cebc f982 01bd
00000200: eab5 a5bd 5493 ee3b 0593 ccbc 04da 25be
00000210: ed4b 82bd 10ce 11be cd70 21be 76c0 8abd
00000220: 33da e039 cfb4 e2bc b8aa 5f3d 545f 66bd
00000230: 3f59 1abd 6c12 88bd fa3c 2f3c 2d88 56bd
00000240: 284e 96bd 2bec 1a3d c80a a7bc b0d0 8cbd
00000250: 687e 63bb f297 9e3d 113f 3e3d df32 563d
00000260: 6410 7e3d d171 3ebd e5f8 d4bc a0b6 f13c
00000270: 9093 83ba fbf7 82bd a8fc e3bd 70a4 19bd
00000280: 0c38 4cbe 4911 d2bd f9c2 34bd f012 a5bc
00000290: e3c4 e2bd 170c 1ebd 7939 273d fdb1 c4ba
000002a0: c8f5 efbc b493 5b3d 144d 813d 85eb 843b
000002b0: 76ff 53bd 026c c6bc a623 04bd 4c4c 9dbd
000002c0: 429a 023d 7571 f93c 0a1f 05bd dfc2 36bd
000002d0: 3c3c 863d 8bc7 a9bd 85d9 9a3c 364c 4cbc
000002e0: 2ab5 81bc b9ae bebd 9b4c 55bd 468a 1bbe
000002f0: 2414 d9bd 362f f6bd 75bc 11bd 1b1d e0bd
00000300: 93b4 573d 7d3b bcbd b4aa 6d3d 1356 2dbd
00000310: 1911 4bbd 9f3d 683d dd9a 1c3d 7b9f e0bc
00000320: aa88 bf3a 00ee 4a3c 8b18 5b3d 41ec 2d3c
00000330: 5b3b 53bc 8fff 53bd a4d8 cbbc b970 92bd
00000340: 9b02 afbd 84bb 013d 5c30 43bd 2268 babc
00000350: a6d3 93bd 8429 cb3c c486 abbd b2a6 863c
00000360: a50a 1f3d 8eac 98bd 399d 463c f9da a6bb
00000370: c94e e93d cb6b 02bc 19cc 5d3d 478b 94bd
00000380: 5fc8 44bd 3b1c 0f3d a418 cbb7 4dba a7bd
00000390: 3dd0 edbd dc22 97bd 9d37 69bd 3ffd 4e3d
000003a0: 7634 a23d a3c6 553d c19d 173d 94c4 6ebd
000003b0: 8b26 5ebd 099f aebd 9862 a8bd 2aa7 d6bb
000003c0: 5b2a d1bc 2daf b13d 7d43 eb3d 15ee 14bc
000003d0: e0c1 42bc eeb7 873c 9855 2c3e c9b9 bf3d
000003e0: 7936 8d3d 8349 ea3d 33f1 033c f6ee b53d
000003f0: 40a4 5cbc 8a1d 873c 2918 36bd e6a6 b1bd

StatefulPartitionedCall/sequential/dense/MatMul_bias f4 [100]
0.102998324 -0.0056634494 -0.027847037 -0.008543179 0.06840631 0.009202028 -0.051306434 0.087900855
0.10225126 -0.05538957 0.03673025 -0.0065298784 0.042581916 0.07478832 0.0035553344 -0.0056762034
0.08400507 0.00534523 -0.0069968137 0.11614724 0.0024240504 -0.08243756 0.061925933 0.05826046
0.08783504 0.012255627 0.05486502 0.043450233 -0.0597349 -0.018780937 0.05155639 0.07595887
-0.021641614 0.029747823 -0.028384669 -0.004793044 0.09538778 -0.06882489 0.11365148 -0.073945165
0.053959556 -0.058205884 0.018687233 0.01777483 0.04239283 0.03481319 -0.054170467 0.0100535285
-0.022156645 -0.064993426 -0.016513992 0.058609925 -0.013679504 0.07136938 0.09937507 0.012927516
0.020787658 0.045227703 0.08078177 -0.008022212 0.071902804 0.0815436 0.03650915 0.0021544425
0.03899637 0.062644035 0.016761033 0.029338384 -0.009041865 -0.017440734 0.03601728 0.07339942
0.04632278 0.013560206 0.043145943 0.047909673 0.03464596 0.064616635 -0.021341993 0.015716039
-0.075376034 -0.048429664 0.013910805 0.112757124 0.0020749485 0.017634705 0.023285858 0.07613603
0.08510045 0.015022739 -0.044394262 -0.046690438 0.02192049 0.06822351 0.037163995 -0.006344608
0.04253888 -0.033687543 -0.028280057 -0.0073637017
00000000: c9f0 d23d 7594 b9bb 781f e4bc b1f8 0bbc
00000010: 9c18 8c3d 1ac4 163c b226 52bd 5d05 b43d
00000020: 1c69 d13d 2ce0 62bd 7572 163d 97f8 d5bb
00000030: 606a 2e3d 9e2a 993d 9d00 693b 72ff b9bb
00000040: da0a ac3d 0a27 af3b 8745 e5bb 9bde ed3d
00000050: d1dc 1e3b 06d5 a8bd 0ca6 7d3d 85a2 6e3d
00000060: dce2 b33d d3cb 483c 25ba 603d dff8 313d
00000070: 95ac 74bd 7bda 99bc cb2c 533d 5390 9b3d
00000080: c149 b1bc b5b1 f33c f786 e8bc f80e 9dbb
00000090: ab5a c33d 10f4 8cbd 1bc2 e83d 9070 97bd
000000a0: b204 5d3d 4b69 6ebd f815 993c 859c 913c
000000b0: 1ba4 2d3d 4798 0e3d dae1 5dbd 8eb7 243c
000000c0: da81 b5bc 461b 85bd 5a48 87bc f610 703d
000000d0: 0020 60bc 1c2a 923d 2885 cb3d efcd 533c
000000e0: e14a aa3c af40 393d ea70 a53d 996f 03bc
000000f0: c741 933d 5500 a73d 9e8a 153d 8c31 0d3b
00000100: a8ba 1f3d 844b 803d 6f4e 893c 0d57 f03c
00000110: 5524 14bc dfdf 8ebc db86 133d 6f52 963d
00000120: f5bc 3d3d a02b 5e3c cdb9 303d ef3c 443d
00000130: ece8 0d3d ba55 843d 67d5 aebc ecbe 803c
00000140: c05e 9abd 2f5e 46bd 25ea 633c 35ed e63d
00000150: dcfb 073b a876 903c fcc1 be3c 35ed 9b3d
00000160: 2549 ae3d ef21 763c c2d6 35bd 793e 3fbd
00000170: 9992 b33c c5b8 8b3d 4639 183d 6ee6 cfbb
00000180: 403d 2e3d f3fb 09bd 94ab e7bc 354b f1bb

StatefulPartitionedCall/sequential/dense_1/MatMul/ReadVariableOp/transpose f4 [10, 100]
-0.26824185 -0.21277149 -0.14630194 0.2772098 -0.3702619 0.099558264 0.080678314 -0.18934973
-0.2994403 0.035410892 0.24838951 -0.029737618 -0.21870995 -0.22394285 -0.0836545 0.16786915
0.031230668 -0.08830314 -0.18228734 -0.018416982 0.040420495 0.24363664 -0.21768567 -0.16014296
0.066519074 -0.17028819 0.13286494 -0.293593 0.27023852 -0.3426029 0.009660816 -0.07307757
-0.13016795 0.14542997 -0.29034895 0.10887263 -0.21783258 0.09444211 -0.12606034 0.05090387
-0.21072052 0.15174973 0.054726195 0.20304966 -0.33857518 -0.21485208 -0.16853143 0.018417606
-0.23196696 0.19100738 0.09632141 0.02387232 -0.18432534 0.14760722 0.27260938 0.20461723
0.18574534 -0.26526877 0.029003128 0.13700286 0.030610932 0.110346615 -0.29684368 0.23185006
-0.033030313 0.31722927 -0.36141333 -0.097980134 -0.11161285 -0.068593726 -0.2933905 -0.21813223
-0.016080633 -0.20793922 0.117803685 -0.060509253 0.288041 0.22209188 -0.14917679 0.10241582
-0.016040869 -0.31299636 -0.058466 -0.026368294 0.25697955 -0.16784625 -0.03290433 -0.30580127
-0.12292668 -0.021308428 0.16651207 -0.12296645 -0.127012 -0.09570319 -0.07901298 -0.070494875
-0.0587134 -0.040249463 -0.08497691 0.1607658 0.110962234 -0.18765187 -0.26223305 -0.06375964
-0.26798618 0.12810363 0.012704342 0.025107732 0.20428398 -0.17848636 -0.3144494 -0.17527066
-0.0412427 0.06859643 0.12721588 0.124090955 -0.04713835 -0.18838793 0.37137952 0.13131203
0.095130324 -0.21621558 -0.023381138 -0.158826 -0.27907118 0.13391942 0.2499239 0.06193384
-0.19314195 -0.19896281 0.39549556 0.17107758 -0.12417573 0.14078872 -0.06896969 0.3992284
0.27199188 0.15424003 -0.34815028 0.20273179 0.00797069 -0.2197675 -0.15808742 0.062007
0.16898775 -0.0093546575 -0.32533675 0.041802052 -0.26008004 -0.29399598 -0.26808456 -0.020904033
-0.24110469 0.049825862 -0.0052157515 -0.066566154 0.032264967 0.19330072 0.1425473 -0.010485921
-0.075965576 0.078541376 0.13138358 0.25682837 0.20808381 0.31966704 0.41951224 -0.32706898
-0.120921955 0.11059756 0.19781095 0.14894424 0.050129022 -0.14898418 -0.19885364 0.30362374
-0.3191686 -0.23400563 0.07668719 0.005587592 -0.26281953 -0.017608685 -0.17023164 0.12594385
0.07666425 -0.30428922 -0.051654093 0.08608771 0.258397 -0.045547158 0.2659201 -0.08137539
0.18555994 -0.26007405 0.19809572 -0.10546593 0.02288372 -0.24415818 0.19549815 -0.07902243
0.12784205 0.18778437 -0.12950458 0.16674584 -0.20838533 -0.3791381 0.22330901 0.16982609
0.09802246 -0.08406772 0.06944739 -0.3928913 -0.16307396 -0.058697358 -0.26040494 0.05822002
-0.034354817 0.14582422 -0.090741344 -0.43276718 -0.01267167 0.044836797 0.2982669 0.13957976
0.013439551 -0.051418465 -0.30699745 0.21268216 -0.01391051 -0.07086619 0.13011624 -0.2811193
0.0339361 -0.063796096 0.0591277 -0.22212368 0.09061045 -0.20007241 0.2724619 0.25985214
0.2383959 -0.20218769 0.066268876 -0.00048715752 0.19964688 0.2696949 -0.07354168 0.2432408
-0.2444737 0.13653995 -0.058732465 -0.16020465 -0.066101335 0.12665805 -0.11136045 -0.10722083
00000000: ff56 89be c5e0 59be 2dd0 15be 71ee 8d3e
00000010: f892 bdbe 34e5 cb3d ac3a a53d e5e4 41be
00000020: 3d50 99be 030b 113d d259 7e3e 4e9c f3bc
00000030: 80f5 5fbe 4651 65be 0d53 abbd e4e5 2b3e
00000040: 75d7 ff3c 47d8 b4bd 88a9 3abe 36df 96bc
00000050: f68f 253d e27b 793e fee8 5ebe 84fc 23be
00000060: 273b 883d 0760 2ebe bf0d 083e d251 96be
00000070: b45c 8a3e a669 afbe 6648 1e3c b1a9 95bd
00000080: bf4a 05be 98eb 143e 9ea8 94be 9df8 de3d
00000090: 810f 5fbe dd6a c13d f615 01be 9480 503d
000000a0: 1fc7 57be 4864 1b3e 9328 603d 40ec 4f3e
000000b0: ba59 adbe 2f02 5cbe 8193 2cbe 85e0 963c
000000c0: bf88 6dbe 7097 433e 2944 c53d e28f c33c
000000d0: c8bf 3cbe 5926 173e 7593 8b3e 2e87 513e
000000e0: 0734 3e3e 4fd1 87be f897 ed3c 7a4a 0c3e
000000f0: c7c3 fa3c 68fd e13d e5fb 97be 1a6a 6d3e
00000100: cb4a 07bd e06b a23e 2b0b b9be cfa9 c8bd
00000110: 4795 e4bd de7a 8cbd 4837 96be 0e5e 5fbe
00000120: 88bb 83bc 05ee 54be 0f43 f13d 8dd8 77bd
00000130: 1c7a 933e 0e6c 633e cdc1 18be 63bf d13d
00000140: 2468 83bc 0f41 a0be 0b7a 6fbd 5202 d8bc
00000150: d392 833e e3df 2bbe b1c6 06bd fc91 9cbe
00000160: fcc0 fbbd 038f aebc 2482 2a3e d6d5 fbbd
00000170: 6f0f 02be 0900 c4bd 8fd1 a1bd 9e5f 90bd
00000180: 767d 70bd 9fdc 24bd 6008 aebd ca9f 243e
00000190: 2b40 e33d d027 40be 6943 86be 6a94 82bd
000001a0: 7c35 89be 992d 033e df25 503c bbae cd3c
000001b0: d22f 513e 21c5 36be 83ff a0be 277a 33be
000001c0: 1bee 28bd 497c 8c3d e144 023e 6623 fe3d
000001d0: 2414 41bd c4e8 40be 7525 be3e a976 063e
000001e0: b0d3 c23d 9e67 5dbe cd89 bfbc 48a3 22be
000001f0: 6be2 8ebe 2c22 093e 0dec 7f3e 57ae 7d3d
00000200: 01c7 45be e8bc 4bbe 657e ca3e f62e 2f3e
00000210: d84f febd eb2a 103e fb3f 8dbd aa67 cc3e
00000220: 8542 8b3e 19f1 1d3e c140 b2be ec98 4f3e
00000230: 7f97 023c bb0a 61be abe1 21be 0dfb 7d3d
00000240: 200b 2d3e 4744 19bc 8a92 a6be a138 2b3d
00000250: 3629 85be a486 96be 6142 89be ef3e abbc
00000260: 26e4 76be 3416 4c3d e5e8 aabb d653 88bd
00000270: 4528 043d a0f0 453e ebf7 113e 24cd 2bbc
00000280: d793 9bbd 4dda a03d 6b89 063e 027f 833e
00000290: ec13 553e 66ab a33e 4fca d63e 9675 a7be
000002a0: eea5 f7bd f980 e23d f48e 4a3e d784 183e
000002b0: 1754 4d3d 4f8f 18be 4aa0 4bbe 9274 9b3e
000002c0: 116a a3be 2c9f 6fbe 2c0e 9d3d 1e18 b73b
000002d0: 4890 86be 1740 90bc 3451 2ebe 6df7 003e
000002e0: 2502 9d3d cccb 9bbe 3e93 53bd c14e b03d
000002f0: 9d4c 843e a88f 3abd ae26 883e 24a8 a6bd
00000300: 6d03 3e3e 6d28 85be 9bd9 4a3e 86fe d7bd
00000310: a476 bb3c 9a04 7abe ab30 483e 83d6 a1bd
00000320: 07e9 023e 8c4a 403e d99c 04be 6cbf 2a3e
00000330: f762 55be 641e c2be 1eab 643e e4e6 2d3e
00000340: 00c0 c83d b22b acbd 6f3a 8e3d 0c29 c9be
00000350: dcfc 26be a46c 70bd cc53 85be 1e78 6e3d
00000360: a3b7 0cbd f252 153e 99d6 b9bd a993 ddbe
00000370: d69c 4fbc caa6 373d 70b6 983e ffed 0e3e
00000380: 9031 5c3c 2b9c 52bd c52e 9dbe 5ac9 593e
00000390: e8e8 63bc 4b22 91bd 313d 053e deee 8fbe
000003a0: 9400 0b3d 87a7 82bd e32f 723d 6474 63be
000003b0: f991 b93d c8df 4cbe 2080 8b3e 570b 853e
000003c0: 0e1e 743e 4a0a 4fbe fab7 873d 2d69 ffb9
000003d0: 3b70 4c3e 7315 8a3e 059d 96bd 1e14 793e
000003e0: 5057 7abe 21d1 0b3e 7491 70bd b00c 24be
000003f0: 2360 87bd a6b2 013e f310 e4bd 9896 dbbd

StatefulPartitionedCall/sequential/dense_1/MatMul_bias f4 [10]
-0.032438245 0.033453736 0.0016673869 -0.025165832 -0.0019994697 0.07774665 -0.02333126 0.045327008
-0.07368758 -0.0054594493
00000000: f7dd 04bd c906 093d 388c da3a 9328 cebc
00000010: 8909 03bb a339 9f3d 3321 bfbc d0a8 393d
00000020: 84e9 96bd 2ee5 b2bb
