source/_static/code/zh/android/MnistClassifier/app/src/main/assets/mnist_savedmodel_quantized.tflite (tflite, 84280 bytes, 4 tensors)

StatefulPartitionedCall/sequential/dense/MatMul/ReadVariableOp/transpose i1 [100, 784] scale=0.0024562995 zero_point=0
0	0xe6	-0.063863784
1	0xdf	-0.081057884
2	0xf8	-0.019650396
3	0x15	0.051582288
4	0x1a	0.063863784
5	0x1d	0.071232684
6	0x05	0.012281498
7	0x0b	0.027019294
8	0xf2	-0.034388192
9	0x1e	0.073688984
10	0x1a	0.063863784
11	0x1c	0.068776384
12	0x01	0.0024562995
13	0x0e	0.034388192
14	0xf8	-0.019650396
15	0xeb	-0.051582288
16	0x16	0.054038588
17	0x09	0.022106696
18	0x08	0.019650396
19	0xef	-0.041757092
20	0x01	0.0024562995
21	0x0f	0.036844492
22	0x07	0.017194096
23	0xdf	-0.081057884
24	0xe7	-0.061407488
25	0x1e	0.073688984
26	0xee	-0.04421339
27	0xf5	-0.027019294
28	0x06	0.014737797
29	0x02	0.004912599
30	0x08	0.019650396
31	0xf2	-0.034388192
32	0x1d	0.071232684
33	0x14	0.04912599
34	0xe5	-0.066320084
35	0xcb	-0.13018388
36	0xe6	-0.063863784
37	0xe6	-0.063863784
38	0xdf	-0.081057884
39	0xe0	-0.078601584
40	0xe3	-0.071232684
41	0xd4	-0.108077176
42	0xfc	-0.009825198
43	0xf0	-0.039300792
44	0xe4	-0.068776384
45	0xd5	-0.105620876
46	0xda	-0.09333938
47	0xe3	-0.071232684
48	0x01	0.0024562995
49	0xed	-0.04666969
50	0x13	0.04666969
51	0x09	0.022106696
52	0xef	-0.041757092
53	0x17	0.056494888
54	0x1b	0.066320084
55	0x0b	0.027019294
56	0xfe	-0.004912599
57	0x0a	0.024562996
58	0xfa	-0.014737797
59	0xfa	-0.014737797
60	0x07	0.017194096
61	0x0a	0.024562996
62	0x10	0.039300792
63	0xd5	-0.105620876
64	0xee	-0.04421339
65	0x14	0.04912599
66	0xd3	-0.110533476
67	0xf3	-0.031931892
68	0x03	0.0073688985
69	0xf6	-0.024562996
70	0xec	-0.04912599
71	0xce	-0.122814976
72	0xdc	-0.08842678
73	0xe5	-0.066320084
74	0xe2	-0.073688984
75	0xe4	-0.068776384
76	0xc6	-0.14246537
77	0xd8	-0.09825198
78	0xf1	-0.036844492
79	0xfd	-0.0073688985
80	0x04	0.009825198
81	0x1e	0.073688984
82	0xe2	-0.073688984
83	0x10	0.039300792
84	0x1e	0.073688984
85	0x04	0.009825198
86	0xf4	-0.029475594
87	0xe3	-0.071232684
88	0x09	0.022106696
89	0xe3	-0.071232684
90	0x06	0.014737797
91	0xec	-0.04912599
92	0xfc	-0.009825198
93	0x0f	0.036844492
94	0x0e	0.034388192
95	0xd9	-0.09579568
96	0xf8	-0.019650396
97	0x02	0.004912599
98	0xdd	-0.08597048
99	0xe5	-0.066320084
100	0xf5	-0.027019294
101	0x0b	0.027019294
102	0xd2	-0.112989776
103	0xcb	-0.13018388
104	0xe7	-0.061407488
105	0x14	0.04912599
106	0xd3	-0.110533476
107	0xf3	-0.031931892
108	0xd6	-0.103164576
109	0xde	-0.083514184
110	0x05	0.012281498
111	0xe2	-0.073688984
112	0x0b	0.027019294
113	0xe7	-0.061407488
114	0xed	-0.04666969
115	0x0d	0.031931892
116	0xee	-0.04421339
117	0x21	0.081057884
118	0x05	0.012281498
119	0x07	0.017194096
120	0xfd	-0.0073688985
121	0x01	0.0024562995
122	0xf1	-0.036844492
123	0xf2	-0.034388192
124	0x28	0.09825198
125	0x0f	0.036844492
126	0x12	0.04421339
127	0xf1	-0.036844492
128	0x1d	0.071232684
129	0xe8	-0.058951188
130	0xfe	-0.004912599
131	0xe4	-0.068776384
132	0x03	0.0073688985
133	0x20	0.078601584
134	0x07	0.017194096
135	0x0a	0.024562996
136	0x11	0.041757092
137	0xed	-0.04666969
138	0x09	0.022106696
139	0xf6	-0.024562996
140	0xe0	-0.078601584
141	0xe0	-0.078601584
142	0xf7	-0.022106696
143	0xde	-0.083514184
144	0x13	0.04666969
145	0xe1	-0.076145284
146	0xed	-0.04666969
147	0xf7	-0.022106696
148	0x11	0.041757092
149	0x2d	0.110533476
150	0x11	0.041757092
151	0xf8	-0.019650396
152	0xfe	-0.004912599
153	0x03	0.0073688985
154	0x07	0.017194096
155	0xfb	-0.012281498
156	0xf7	-0.022106696
157	0x30	0.117902376
158	0x0a	0.024562996
159	0x20	0.078601584
160	0x12	0.04421339
161	0x17	0.056494888
162	0xe4	-0.068776384
163	0x0b	0.027019294
164	0xfb	-0.012281498
165	0xd3	-0.110533476
166	0xeb	-0.051582288
167	0x0a	0.024562996
168	0xe2	-0.073688984
169	0xfd	-0.0073688985
170	0xdf	-0.081057884
171	0xff	-0.0024562995
172	0xee	-0.04421339
173	0xe0	-0.078601584
174	0xf5	-0.027019294
175	0x06	0.014737797
176	0xe9	-0.056494888
177	0xe2	-0.073688984
178	0x01	0.0024562995
179	0x00	0.0
180	0x06	0.014737797
181	0x09	0.022106696
182	0x0a	0.024562996
183	0x10	0.039300792
184	0xfd	-0.0073688985
185	0x19	0.061407488
186	0x07	0.017194096
187	0xf5	-0.027019294
188	0x0e	0.034388192
189	0xf2	-0.034388192
190	0xe5	-0.066320084
191	0x0d	0.031931892
192	0xdc	-0.08842678
193	0x06	0.014737797
194	0xf3	-0.031931892
195	0xe9	-0.056494888
196	0x11	0.041757092
197	0xeb	-0.051582288
198	0xe0	-0.078601584
199	0xe4	-0.068776384
200	0xfc	-0.009825198
201	0xec	-0.04912599
202	0x0e	0.034388192
203	0xee	-0.04421339
204	0xed	-0.04666969
205	0x11	0.041757092
206	0xd8	-0.09825198
207	0x00	0.0
208	0xda	-0.09333938
209	0x16	0.054038588
210	0xde	-0.083514184
211	0xdf	-0.081057884
212	0x1c	0.068776384
213	0xfa	-0.014737797
214	0x18	0.058951188
215	0xf9	-0.017194096
216	0xe1	-0.076145284
217	0x0a	0.024562996
218	0xf8	-0.019650396
219	0x02	0.004912599
220	0xfc	-0.009825198
221	0xcf	-0.120358676
222	0xf8	-0.019650396
223	0x0a	0.024562996
224	0x17	0.056494888
225	0xee	-0.04421339
226	0x19	0.061407488
227	0xcd	-0.12527128
228	0xee	-0.04421339
229	0xe4	-0.068776384
230	0xe0	-0.078601584
231	0x00	0.0
232	0xf4	-0.029475594
233	0xfd	-0.0073688985
234	0x06	0.014737797
235	0xe9	-0.056494888
236	0xe6	-0.063863784
237	0x23	0.08597048
238	0x22	0.083514184
239	0xe6	-0.063863784
240	0x03	0.0073688985
241	0x10	0.039300792
242	0x02	0.004912599
243	0xeb	-0.051582288
244	0xea	-0.054038588
245	0x02	0.004912599
246	0x00	0.0
247	0xe6	-0.063863784
248	0xdb	-0.09088308
249	0xda	-0.09333938
250	0x00	0.0
251	0xf0	-0.039300792
252	0xea	-0.054038588
253	0xef	-0.041757092
254	0xe3	-0.071232684
255	0xfb	-0.012281498

StatefulPartitionedCall/sequential/dense/MatMul_bias f4 [100]
0	0xbc316ef8	-0.01082968
1	0x3d9595e6	0.073039815
2	0x3ccac27a	0.024750937
3	0x3cbbd4bf	0.022928594
4	0x3d612e0f	0.054975566
5	0xbd477176	-0.04869219
6	0xb93fbd58	-0.00018285715
7	0x3cde9300	0.027169704
8	0xbb5e2c32	-0.0033900854
9	0x3bab6653	0.005230704
10	0xbd7c12a6	-0.061541222
11	0x3c937f10	0.018004924
12	0x3cc10e33	0.023566341
13	0xbd30b76c	-0.043143675
14	0x3d5bb66f	0.05364078
15	0x3c80b644	0.015711911
16	0x3d92d0df	0.07168745
17	0x3d5e5b1c	0.054286107
18	0xbd472ed6	-0.04862865
19	0xbd4cde18	-0.050016493
20	0xbd10dd2f	-0.035367187
21	0x3d883f1a	0.06652661
22	0x3ddabddc	0.10680744
23	0x3c78ac25	0.015177761
24	0x3bc8cd7d	0.0061280117
25	0xbc8223ac	-0.01588615
26	0x3d2e7982	0.042596348
27	0x3ddd337e	0.10800837
28	0x3b6ce499	0.0036146997
29	0x3cc732a6	0.024316143
30	0x3d2c4994	0.042062357
31	0xbd2e7b68	-0.042598158
32	0x3db29286	0.087193534
33	0x3ced147e	0.028940435
34	0x3d24afda	0.040206768
35	0x3d5ce8ff	0.05393314
36	0x3d0da667	0.03458252
37	0x3c1d3ae8	0.009596564
38	0x3da850fb	0.08218571
39	0x3d82dd60	0.0638988
40	0x3e05bff5	0.13061507
41	0x3d1d8722	0.03845895
42	0xbd74cfd0	-0.059768498
43	0xbc9476af	-0.018122999
44	0x3c2b1dab	0.010444085
45	0xbc981633	-0.018565273
46	0x3dbc4275	0.09192363
47	0x3d27e6e3	0.040991675
48	0x3dd60cf7	0.104516916
49	0x3cc1fd00	0.02368021
50	0x3d015ceb	0.031582754
51	0xbd83c900	-0.06434822
52	0xbd3c08b4	-0.045906737
53	0x3d9834de	0.074319586
54	0x3d07ba11	0.03313643
55	0x3a611968	0.00085868547
56	0xbd0be6b7	-0.034155574
57	0x3db71023	0.08938625
58	0x3d0740ae	0.033020668
59	0xbda3d95f	-0.080004446
60	0xbdc71fd9	-0.09722871
61	0x3d477a64	0.048700705
62	0xbcb550b9	-0.022133218
63	0x3ceb596e	0.028729167
64	0x3d6f0474	0.058353856
65	0xbd5d698a	-0.054055728
66	0xbc275e77	-0.010215393
67	0x3d9f6cac	0.077843994
68	0xbb8db150	-0.004324116
69	0x3d87c47f	0.066292755
70	0x3cf1cace	0.02951565
71	0xbd941d35	-0.07232133
72	0xbd3257b3	-0.043540668
73	0x3d9f8563	0.077891134
74	0x3d9ce70c	0.07661256
75	0xbad07cc7	-0.0015906327
76	0xbc761376	-0.015019288
77	0x3d38404b	0.04498319
78	0xbd74b265	-0.059740443
79	0x3dc110bb	0.09427019
80	0x3df2fe94	0.11864963
81	0xbd1a1bff	-0.037624355
82	0x3c3bf539	0.01147204
83	0x3b9f5689	0.0048626107
84	0xbb8ef6e4	-0.0043629277
85	0xbcc37c10	-0.023862869
86	0x3ca9a5c2	0.020708922
87	0xbd66258f	-0.056188162
88	0x3d7bf538	0.061513156
89	0x3d7ecf89	0.06220964
90	0x3dc17f24	0.09448078
91	0xbc9bf8e9	-0.019039588
92	0xbbdccc0c	-0.0067381915
93	0x3d3fc8f4	0.046822503
94	0x3cba1563	0.022715276
95	0x3d0e0e5e	0.03468167
96	0x3cac3cf9	0.021025168
97	0x3db2ad3d	0.08724449
98	0x3dc9b655	0.0984923
99	0x3d931858	0.071823776

StatefulPartitionedCall/sequential/dense_1/MatMul/ReadVariableOp/transpose f4 [10, 100]
0	0x3d7060f3	0.058686208
1	0xbea780a7	-0.3271534
2	0xbce8ca07	-0.028416647
3	0x3e610e1f	0.21978043
4	0xbe01e5a3	-0.12685256
5	0x3d66d9f8	0.056360215
6	0x3e95567b	0.29167542
7	0x3e946a40	0.28987312
8	0xbd8b5e2c	-0.06805071
9	0xbe747bc7	-0.23875342
10	0x3dca42f5	0.09876052
11	0xbabf9076	-0.0014615196
12	0x3e28af61	0.16473152
13	0x3df5a66a	0.119946316
14	0xbd2dd1c4	-0.042436376
15	0x3defd483	0.11710455
16	0x3e519b4c	0.20469397
17	0xbebefb39	-0.37301043
18	0x3e1797ea	0.14804044
19	0xbe49ec05	-0.1971894
20	0x3d88f22d	0.06686816
21	0xbd62887e	-0.05530595
22	0xbe899381	-0.2687035
23	0x3e59ffe0	0.21289015
24	0xbe863367	-0.26211092
25	0x3e784c82	0.24247935
26	0x3e581959	0.2110342
27	0xbe8a2d2b	-0.26987585
28	0xbe6ff6cf	-0.23433994
29	0xbd9dc847	-0.077042155
30	0xbdb759bf	-0.089526646
31	0x3dd08e03	0.101833366
32	0xbe361534	-0.17781526
33	0xbe3e0f01	-0.18560411
34	0xbe34d46f	-0.17659162
35	0xbe8047f3	-0.25054893
36	0x3e5a027f	0.21290015
37	0xbe998ae4	-0.29988778
38	0x3e396318	0.18104208
39	0x3dcf937f	0.101355545
40	0x3e026098	0.1273216
41	0x3e43aa40	0.19107914
42	0x3e8a2f37	0.26989147
43	0xbe4fcd83	-0.2029324
44	0xbe35e8fd	-0.17764659
45	0x3def96e0	0.11698699
46	0xbb74e8c5	-0.0037370187
47	0xbe0d1195	-0.13776238
48	0x3dbb1b6f	0.09136092
49	0xbeb0ed1c	-0.345559
50	0x3d3f9d1c	0.04678069
51	0xbe1e400c	-0.1545412
52	0xbd35ad01	-0.044354443
53	0xbccebf0b	-0.02523758
54	0x3cd71eca	0.026259799
55	0x3de3c868	0.11122209
56	0xbc110d13	-0.008853215
57	0xbeaf1438	-0.34195113
58	0x3e7754f3	0.241535
59	0xbd7a35da	-0.061086513
60	0xbd849c72	-0.06475152
61	0xbe39246f	-0.18080305
62	0x3de6d46a	0.112709835
63	0x3e688302	0.22706226
64	0xbd2380f0	-0.039917886
65	0x3d676b2b	0.056498688
66	0x3e615679	0.22005643
67	0xbeb33970	-0.3500476
68	0xbd30e3f2	-0.043186136
69	0xbe685850	-0.22689939
70	0xbe003551	-0.12520339
71	0xbea63453	-0.32461795
72	0x3d3efe04	0.046628967
73	0xbe0a009c	-0.13476795
74	0xbe0a542a	-0.13508669
75	0xbc21dd48	-0.009879418
76	0xbe1bc6b4	-0.15212518
77	0xbd4fea84	-0.05076076
78	0x3e677a68	0.22605288
79	0xbea380cf	-0.3193421
80	0x3d823e3c	0.063595265
81	0x3a7f25b9	0.0009733099
82	0xbea2184b	-0.3165916
83	0xbe82f5f1	-0.25578263
84	0x3d0f1610	0.03493315
85	0xbe06d11b	-0.13165705
86	0xbd2fbb57	-0.04290327
87	0x3dd4ebc1	0.10396529
88	0x3e6cd5b3	0.23128395
89	0x3e1358aa	0.14389291
90	0x3c870424	0.016481467
91	0xbd751e90	-0.0598436
92	0xbe9ccc6b	-0.3062471
93	0x3d9167b7	0.0709986
94	0x3d97808f	0.073975675
95	0x3d52d5f3	0.05147357
96	0x3dbac9a6	0.09120493
97	0xbd95b8ac	-0.07310614
98	0xbdaa6f46	-0.08322005
99	0xbe9435d7	-0.28947327
100	0xbd493df4	-0.04913135
101	0x3e17b715	0.14815934
102	0x3d01f284	0.03172542
103	0x3e5e224f	0.21692775
104	0xbdef9cbe	-0.11699818
105	0x3e70ae30	0.23503947
106	0x3c81a54a	0.015825886
107	0x3d498c25	0.049205918
108	0x3e25bbf7	0.16184984
109	0x3e1c3cff	0.15257643
110	0x3dc6163c	0.096722096
111	0x3e48bf35	0.1960419
112	0xbeb92023	-0.3615733
113	0xbea6cebe	-0.32579607
114	0xbd7ed393	-0.06221349
115	0xbebf3653	-0.37346134
116	0xbe91aaad	-0.28450528
117	0xbb0e6a06	-0.0021730675
118	0x3e14952f	0.14510034
119	0xbe90f90d	-0.2831501
120	0xbe7efa55	-0.24900182
121	0x3d680ccf	0.05665284
122	0x3e820a8a	0.25398666
123	0xbe54a6d3	-0.20766763
124	0xbdd9626f	-0.10614478
125	0xbd9c286e	-0.07624899
126	0xbe137340	-0.14399433
127	0x3d911e4c	0.07085857
128	0x3e8730da	0.26404458
129	0x3e3121e9	0.17298092
130	0x3e2fbc8e	0.17161772
131	0x3df556b4	0.11979428
132	0x3e754feb	0.23956268
133	0xbdd2f2fe	-0.10300253
134	0xbdb219c1	-0.086963184
135	0x3ea82c42	0.32846266
136	0xbe25fd5d	-0.16209932
137	0x3e315818	0.17318761
138	0xbe71f76f	-0.23629545
139	0x3e6f2f17	0.23357807
140	0x3e89b8bb	0.2689875
141	0xbe3691ec	-0.17829102
142	0xbe93db5f	-0.28878304
143	0xbe77ba85	-0.24192245
144	0x3d6ce505	0.057835598
145	0x3dea71c7	0.114474826
146	0x3eaec9cf	0.34138343
147	0x3e6595d6	0.22420439
148	0x3c39a47e	0.011330722
149	0x3e8526e9	0.2600625
150	0xbea0ea09	-0.31428555
151	0x3d46af58	0.048507065
152	0xbd86a4e0	-0.06574416
153	0xbc164e32	-0.009173917
154	0xbea7e981	-0.32795337
155	0x3ee083a8	0.43850446
156	0xbe5637ce	-0.20919725
157	0x3e6fa9b4	0.2340458
158	0x3e9327ab	0.28741202
159	0x3d8c2ceb	0.06844505
160	0xbe45ea18	-0.19327581
161	0x3e7058a5	0.23471315
162	0xbe720fdf	-0.23638867
163	0x3c9f9756	0.019481342
164	0x3e14e099	0.14538802
165	0x3e14df32	0.14538267
166	0xbe94bcf1	-0.290504
167	0x3eb20d73	0.34775886
168	0xbe813ab7	-0.25240108
169	0x3e8727ed	0.26397648
170	0xbe629a8b	-0.22129266
171	0xbeb52ff0	-0.35388136
172	0xbce2143f	-0.027597545
173	0x3ce45df2	0.027876828
174	0x3e7a23e6	0.24427757
175	0xbcb553af	-0.02213463
176	0x3d251fae	0.040313415
177	0x3d3f30e2	0.046677478
178	0xbe79bad5	-0.24387677
179	0xbe008e3c	-0.12554258
180	0xbdc0bad6	-0.09410636
181	0xbe6e3806	-0.23263559
182	0xbe375c55	-0.17906316
183	0xbd58c89e	-0.0529257
184	0xbe917c69	-0.2841523
185	0x3dd896a9	0.10575611
186	0xbdc4e580	-0.09614086
187	0xbe99c0a8	-0.30029798
188	0x3df8ee20	0.12154794
189	0x3baca89b	0.005269123
190	0xbe437a58	-0.19089639
191	0x3dcc00a0	0.09961057
192	0xbe30fd0f	-0.17284034
193	0xbe6eb72c	-0.23312062
194	0xbe96730f	-0.29384658
195	0xbe0226f1	-0.12710167
196	0x3eb77907	0.35834524
197	0x3e56884a	0.20950428
198	0x3ddc771b	0.10764905
199	0x3d37c48f	0.044865187
200	0x3e27b2d6	0.16376814
201	0xbe8ccb85	-0.27499023
202	0x3e8b6b9f	0.27230546
203	0x3ea5862a	0.32328922
204	0x3dbb0b81	0.091330536
205	0x3e00cc40	0.12577915
206	0x3e8ef5e5	0.27921978
207	0xbeed89f9	-0.46394327
208	0x3e8320a5	0.25610843
209	0xbdd3dcf5	-0.103448786
210	0x3e83d5fa	0.2574919
211	0xbe8cb162	-0.27479082
212	0x3d7c4704	0.061591163
213	0xbdc566d1	-0.09638751
214	0xbe47ca8f	-0.19510864
215	0xbe799ca3	-0.24376158
216	0xbe5a40b6	-0.21313748
217	0xbdfc120b	-0.12308129
218	0x3e83874e	0.25689167
219	0x3e3c8651	0.18410613
220	0xbe2e646b	-0.17030494
221	0x3df5bd1f	0.119989626
222	0xbe6067cf	-0.219146
223	0x3de3c8bc	0.111222714
224	0xbba5fd3f	-0.0050655897
225	0x3e80a5d4	0.25126517
226	0x3e7366fc	0.23769754
227	0x3e330ce7	0.1748539
228	0x3db37334	0.087622076
229	0x3d5a3509	0.053273235
230	0x3e168eb3	0.14702873
231	0xbd7c1890	-0.061546862
232	0x3e7e3d89	0.24828161
233	0x3d00dc94	0.03146036
234	0x3e393937	0.18088232
235	0xbe8b0162	-0.27149493
236	0xbe2ea6a9	-0.17055763
237	0x3e383781	0.17989923
238	0xbe599267	-0.21247254
239	0xbda10957	-0.078631096
240	0xbd4d22f9	-0.05008218
241	0xbda5856b	-0.08082088
242	0xbdc868d8	-0.09785622
243	0xbd9a9d15	-0.07549492
244	0xbc953284	-0.018212564
245	0xbec6fb55	-0.38863626
246	0xbf029dfc	-0.51022315
247	0x3db53348	0.08847672
248	0xbdeb9f9c	-0.115050524
249	0xbce0b091	-0.027427943
250	0xbe4f1df2	-0.20226267
251	0xbe346feb	-0.17620818
252	0xbc32fa66	-0.010923957
253	0x3d710b2d	0.05884855
254	0xbe99e1bf	-0.30055043
255	0x3d1795a2	0.037007935

StatefulPartitionedCall/sequential/dense_1/MatMul_bias f4 [10]
0	0xbd810fa3	-0.063018106
1	0x3d493c03	0.049129497
2	0x3c5c0f2f	0.013431354
3	0xbc7f2d32	-0.01557474
4	0x3c18f428	0.009335555
5	0x3dd7525d	0.105137564
6	0xbd3185c8	-0.043340474
7	0x3d203913	0.03911693
8	0xbdb42b3c	-0.08797309
9	0xbca97d71	-0.020689698
